graph_result/GAT_best_model_euclidean.pth (torch, 51887 bytes, 9 tensors)

gat1.att_src f4 [1, 2, 48]
00000000: 238a cabb b5db f1b9 f4b5 d03d e2c7 043e
00000010: a707 c33d 056c 9ebd 6290 06bd de83 42bc
00000020: da75 873a 55ce d9bd 292f b0bd 23af e8bc
00000030: 57fa cfbb 1939 c1bc 07c0 e0bc 6f44 d1bd
00000040: aeec a13d 2dab fcbc 8d68 073e b20f 04bd
00000050: 807e f837 316e 043e 4bb2 30bd c7f5 b6bc
00000060: e03b bf3d 5a1d 41bd 70ee 2c3c 11d5 ccbc
00000070: dcf0 4abd 6b26 a03d 654c 8abc 4af8 2abc
00000080: 6497 23ba a228 ffbc 4894 093e 1336 093e
00000090: 91e0 c6bd 6c42 63bc ab02 c4bc f785 1fbb
000000a0: a9dd be3d d451 e1bc 6175 ec3a 8aa2 a237
000000b0: 1b87 6dbd c920 cbbc 8c48 ef3d eec4 ebbc
000000c0: df57 80bb 2382 01bc 0d01 d7bb 8b59 1a3c
000000d0: 9e91 003b f65a 613d 9a76 86b9 42b9 0dbc
000000e0: 3e65 0dbc 91f5 66bc 2268 a5bb d82c afba
000000f0: 6685 1abc ac32 6dbc 48ec 8ab8 6eab 5abb
00000100: e84e a03d 205c d6ba fcaa 443d f69f 693d
00000110: aa69 acbb 03e5 283a eacc 753b 4268 79bc
00000120: ce0a 1a3b e7c4 c53b e424 f5bc ea3e 8b3c
00000130: 14ab b33c 53d7 ad3c 1627 4538 b6a7 22bd
00000140: 4e45 0a3d b75c 233c 9111 e33c 74b4 56bc
00000150: 6248 a5bb 0606 0b3d 0647 1ab9 513c bcbc
00000160: 8fa7 67bb 3c37 373d c3c5 8b3d f029 f53c
00000170: 1aa9 28b9 bc77 41bc b2e0 19bb 361d c13c
-0.006181018 -0.00046130797 0.10190955 0.12966874 0.09522944 -0.07735447 -0.032852538 -0.01187226
0.0010334805 -0.10635058 -0.08602745 -0.028403824 -0.0063469815 -0.023586797 -0.027435316 -0.10218131
0.07906471 -0.030843342 0.13223477 -0.03224153 2.962281e-05 0.1293266 -0.043138783 -0.022333993
0.09337592 -0.047147132 0.010554895 -0.025003942 -0.049546108 0.07819828 -0.01688213 -0.010435173
-0.00062405155 -0.031147305 0.13435471 0.13399534 -0.097108014 -0.013870817 -0.023927053 -0.0024341324
0.09319622 -0.027504839 0.0018040353 1.9387593e-05 -0.057990175 -0.024795907 0.11683759 -0.028780427
-0.003916725 -0.007904562 -0.0065614046 0.009420763 0.0019618045 0.055018388 -0.00025646837 -0.008650126
-0.008630095 -0.0140966335 -0.005047814 -0.0013364805 -0.009431219 -0.014477413 -6.6243636e-05 -0.003336634
0.0782755 -0.001635436 0.048014626 0.057037316 -0.0052616196 0.0006442817 0.0037506172 -0.015222611
0.0023504975 0.0060354355 -0.029924817 0.016997773 0.021932162 0.021220839 4.700486e-05 -0.039710723
0.0337575 0.009970835 0.027718337 -0.013104547 -0.005044029 0.03394129 -0.00014713043 -0.02297798
-0.0035347675 0.04473041 0.068248294 0.029927224 -0.00016084724 -0.011808332 -0.0023479876 0.0235735

gat1.att_dst f4 [1, 2, 48]
00000000: 1a87 b7bb 00dd f0b9 9b77 74ba 1a54 aebb
00000010: 20f1 6aba ba6f cd3c d32d cabc a519 21bc
00000020: 75b4 8a38 1e8d e83c 79cd f63c a450 d0bc
00000030: 4ea9 1fbb 433f bbbc feb9 dcbc 8ff7 063d
00000040: 3550 7e3c 4e83 adbc fd03 ba3c f623 b2bc
00000050: c6d5 3d39 2c2c 843c f6b8 05bd 6cab 9fbc
00000060: 2a1c 893c 9e8a febc eca9 ee3b 9239 98bc
00000070: d5f4 02bd 00b4 76b7 9c65 8ebc cb03 1ebc
00000080: 3791 f2ba 4c8b 0ebd d83d 003a 3a0b 02ba
00000090: 64a1 193d b767 6bbc 9c4c d2bc fcb5 93bb
000000a0: 8054 56bc 62e3 d2bc ef8e a43a f0e5 30b9
000000b0: bdb8 823c d79e b4bc b4a1 343c ad91 a2bc
000000c0: fab4 eebb d2c6 f6bb 0099 bebc f87c c83a
000000d0: d6db 8abb 4455 88ba 7a99 04ba 130a 6a3b
000000e0: 10be 13bc 288b ebbc 9c30 24bc f815 d3bb
000000f0: 9050 4fbc b8a4 14bc b015 ab38 5549 ffba
00000100: 3667 cbbb 51ef 13bc cea3 0938 6052 8fbb
00000110: aa6f d2bb b648 7639 0b88 4cbc ca0e 02bc
00000120: 6021 4fba 48b4 103a cf48 c13b a6d3 0abb
00000130: e0c2 4b3c e089 e23a c0cb 44b9 59e5 da3c
00000140: 8641 99bb 67df 223c 69aa ea3b 7012 13bc
00000150: f063 06bc 8036 9ab5 1018 11ba b03b 9f3b
00000160: c7c7 01bb cc05 d43a bc60 3dbb 9361 7dbb
00000170: 69f0 fab9 217e 18bc 4e1a 8cbb f0be d9ba
-0.005600822 -0.00045941025 -0.0009325684 -0.0053200843 -0.0008962322 0.02507769 -0.024680054 -0.009832774
6.6139655e-05 0.028387602 0.030127274 -0.025429077 -0.0024362388 -0.022857314 -0.026944157 0.032950934
0.0155220525 -0.021180775 0.02270698 -0.021745663 0.00018104081 0.016134344 -0.032647096 -0.01949092
0.016737062 -0.031071957 0.00728344 -0.01858214 -0.03197177 -1.4704652e-05 -0.017382436 -0.009644459
-0.0018506412 -0.034800813 0.0004892028 -0.00049607793 0.03750743 -0.014367989 -0.025671296 -0.004507778
-0.01308167 -0.02574319 0.0012554805 -0.00016870326 0.01595723 -0.022048397 0.011024881 -0.019844854
-0.0072847577 -0.0075310254 -0.023266315 0.0015296033 -0.0042376323 -0.0010401388 -0.000505827 0.003571157
-0.009017482 -0.028752878 -0.010021355 -0.006441828 -0.012653485 -0.009072475 8.157955e-05 -0.0019476811
-0.006207372 -0.009029225 3.28159e-05 -0.0043738335 -0.006422003 0.00023487475 -0.012483607 -0.007938096
-0.00079013966 0.0005520028 0.005898572 -0.0021183281 0.012436599 0.0017283522 -0.0001876792 0.02672069
-0.0046770005 0.009940959 0.0071614278 -0.008976564 -0.008202538 -1.1489756e-06 -0.00055348966 0.00485941
-0.0019802914 0.0016176044 -0.002889677 -0.0038662895 -0.00047862835 -0.009307415 -0.0042755967 -0.001661269

gat1.bias f4 [96]
00000000: 55a0 9abb a2fd bcb9 99b6 a73d 00f7 013d
00000010: 9159 833d 62d8 d4bd 2952 edbc 638e 89bc
00000020: 2ea5 b83a 09f2 0ebe 6182 ffbd e021 a8bd
00000030: f228 03bc 6ed0 fabc 8fe9 4dbd 81a0 1abe
00000040: acd6 453d a76e a1bc b076 003d ee8a 1cbd
00000050: eaef 8cb8 edbe ad3c 3ecd 86bd 15f3 debc
00000060: 8765 0a3d bfc5 153f a0fc 1cbb 7433 1bbd
00000070: 0fc9 11bd dbf1 203d eeb6 b7bc fe89 6fbc
00000080: eabb a1ba c15e 94bd 3f5e 0d3e f35e 373c
00000090: b7f7 01be b9d4 57bd 9875 57bd ece9 92bc
000000a0: 75a6 9e3c 0db2 47bd 9811 453a 8a89 aeba
000000b0: 4f67 d1bd 3e64 dfbc 3ffc ab3b 9232 0bbd
000000c0: 3df5 40bd 63f0 9bbc dcd4 6cbd 3534 cbbb
000000d0: 9e70 edbc 1393 fd3d f575 efba bbea 8bbc
000000e0: de0e 34bc a083 553e d642 b5bc 1c4b f4bc
000000f0: 543d 6abd cf47 4dbd fcfc 9fb8 514a 1fbc
00000100: ac1a 6b3d 0b65 3abd 0ec3 e23d 2989 1b3d
00000110: 8c9a d1bc 2c24 2b39 9826 5bbd 7089 54bd
00000120: 2b07 a8ba a2b4 1dbb d521 8f3c 29d6 5a3c
00000130: ad3a 183d 766b 533d 6b8c fbb9 61a2 10be
00000140: eddc e33d 7e44 ae3c b7a2 9c3c bb51 7ebd
00000150: 7e9f 4dbd eebc 853d ce65 95ba 3b1e 7dbc
00000160: f35f 55bc 52b5 063e 583d b13d 5805 65bd
00000170: 039f 80ba 84d5 f3bc c1df eebb f710 ca3d
-0.00471882 -0.00036047125 0.081891246 0.0317297 0.06413568 -0.10392834 -0.028969841 -0.016791528
0.0014087313 -0.13959517 -0.1247604 -0.08209586 -0.008005368 -0.030616965 -0.050271567 -0.1510029
0.04830043 -0.019706083 0.03136319 -0.03821843 -6.720408e-05 0.021209205 -0.065821156 -0.02721552
0.03378823 0.5850486 -0.0023954287 -0.037890866 -0.035592135 0.03929315 -0.022426095 -0.014620302
-0.0012339328 -0.072446354 0.13805483 0.011192071 -0.12692152 -0.052693103 -0.05260238 -0.017933808
0.019366482 -0.048753787 0.0007517575 -0.0013316136 -0.10224783 -0.027269479 0.005248576 -0.033983774
-0.047108877 -0.019035524 -0.057820186 -0.006201292 -0.028984364 0.12381568 -0.0018269407 -0.017079702
-0.010989873 0.20850992 -0.022126596 -0.029820971 -0.057187393 -0.05011731 -7.628833e-05 -0.009722308
0.057398483 -0.04550652 0.1107236 0.037972603 -0.025586389 0.00016321306 -0.053503603 -0.051888883
-0.0012819519 -0.0024063964 0.017472187 0.013356724 0.037165333 0.051616155 -0.0004797907 -0.14124443
0.111261226 0.021272894 0.019120557 -0.062089663 -0.05020093 0.06530176 -0.0011398138 -0.015449102
-0.013023364 0.13155106 0.086542785 -0.0559133 -0.0009813014 -0.029764898 -0.007289857 0.09866517

gat1.lin.weight f4 [96, 21]
00000000: 3e38 623b 1461 2d3b b908 103a a6c2 b139
00000010: 3794 3aba 13df 433b d864 23bb e485 7b3a
00000020: 5496 b839 f09a b938 0e1d a139 4bcc d5ba
00000030: 0092 a1ba 4e31 14ba 917b 79ba 5171 343a
00000040: d733 503b c896 12ba a86f c53a 4892 0c3b
00000050: fbf2 19ba c79a 8db9 c5d3 5bba 24dc 473a
00000060: e5c1 56ba 7862 03b9 7ae1 32b9 fb14 4cba
00000070: ddb6 e2b9 8819 3fb9 1fce 02ba 2eb3 03ba
00000080: 927d 97b9 b07d 33ba c977 f8b9 5146 83b7
00000090: 9357 89b9 8965 4339 ed43 4bb8 199d 6739
000000a0: a7c5 1e39 5657 ee38 cd4f 0ebd 18e6 5b3d
000000b0: 7a68 8ebd 7ce7 d83c 60a5 be3c 590b 403c
000000c0: dd69 bfbc de39 1bbd 8aec 9b3d 08d6 f33c
000000d0: eef0 bc3c 7060 4d3c da79 833c c6eb f5bc
000000e0: 548b dc3c 92e5 c7bc 3fc9 f1be b028 703e
000000f0: 8ca1 443e 54b9 efbc ef8b 4a3e 44fd c6bd
00000100: 0c91 b1bd 5bfa cfbd bc8a 433c 7263 153e
00000110: 00eb c23d c60d dabd 3c2e 0abe 94be 1f3e
00000120: 2029 1e3d d177 cf3d bb50 a6bd 6f7f 55be
00000130: 3d00 0b3e ba96 413e 57dc c9bd 3612 20bf
00000140: 59b3 913e ea53 523e 3022 e73b 0afc 1b3e
00000150: 2c0b 19bd cce8 283d c31d 81bd 122e b539
00000160: 794b 393d c2ef c93c 417f 53bc b2cb 25bd
00000170: 5ec7 5a3d e40c 103d fc29 59bc ab3f 8b3c
00000180: 3ff1 a63c a2de 8abc 8e79 a73c fa35 473c
00000190: 6feb e4be beb0 483e f632 373e 6df7 2ebd
000001a0: 9412 5a3e 7529 2b3c df86 07bd 510c 963d
000001b0: ce26 563a 8bb1 f23b 66d9 123d c7bd 7e3d
000001c0: 7efb 8f3d 3c75 15bd 5930 0e3d 9f51 3f3d
000001d0: bcfb cd3c 9e07 543c 1862 8c3d 5922 f3bb
000001e0: 1778 3c3d 3619 ea3e 9581 42be c33a e1bd
000001f0: bab8 9e3d e9e2 36be 8945 75bc e7c8 703d
00000200: 028f 03bc d528 06be 32cf debc 4660 29be
00000210: dd7a 14be 770f 04be fd9c b13d 0173 6ebd
00000220: 5fb3 f9bd ea08 7a3d f275 39bd 3f95 0ebd
00000230: 56a7 87bc 9e9c c63d ec1e 993b 76c1 0eba
00000240: 1ccd c33a 0e01 7a3c 98d3 f13a 24e5 bcbb
00000250: 10ff 41bb 197f 17bd fa20 c73b 1059 45bd
00000260: 577a 2ebd 7df7 063d 77be 09bd bb14 9dbb
00000270: c3db d73c aa3a 7bbc 03cb e4bc 5da1 abbc
00000280: de60 4a3c c7db f8bc 8264 70bd f89d 153b
00000290: 1ef1 b4b9 d1a0 e539 b29b b03a b293 0d3a
000002a0: a5cc 50bb b102 aaba 9836 ddba bf04 32bb
000002b0: 0b60 43bb 8628 6abb de97 1bbb 1051 03bb
000002c0: ae18 06bb ba3f 3dbb 6088 e0ba 4c25 13bb
000002d0: b692 24bb 31cb 01bb 05bb 33bb fab1 2fbb
000002e0: f82d 0d38 d88e c2ba a421 d9ba 6eb9 6cbb
000002f0: 5312 8dba 1a33 e13d a7d5 ea3c 57fd 1c3e
00000300: e4f6 01bb ccfa ba3c ffbf 4b3d fae7 6d3d
00000310: 814c 9a3d 76b2 85bc 539e 6838 3cb1 153d
00000320: 5904 333c 8165 e93c 7226 343d 935f 05bc
00000330: cdf4 873d 2ce0 233f e22c 9bbe d2de 5abe
00000340: a388 c23d 7321 8ebe ecef a73d 5cee 53bd
00000350: a06a d03d 1964 323c 4e11 c43c 501a 3c3d
00000360: a1ee 863d ceda b63d f878 473a e003 10bd
00000370: 3646 5b3d 5f72 373d cc96 073d 2eaf 9d3d
00000380: 2670 22bc a4c3 733d e2e1 0a3f b7f6 63be
00000390: 2531 31be 9d6a b83d 4c34 63be a071 24be
000003a0: abb1 6d3c f06b 8d3c 4813 9d3d 7766 b9bc
000003b0: 3493 783d c095 c7bd 2420 34bd fc70 37be
000003c0: eb2f 22be cf91 01be b163 8f3d 7943 70bd
000003d0: 9396 9a3c 4fdf 4b3d ff9f d1bd 3a77 ccbb
000003e0: 26c0 2abb fad5 a8bb cde5 343c 0723 67bc
000003f0: ed54 d8bb 6347 67bc 338f 92bc 9487 7dbb
0.0034518386 0.0026455568 0.0005494464 0.00033905095 -0.00071174226 0.0029887601 -0.0024931934 0.00095948414
0.00035207218 8.850347e-05 0.0003072996 -0.0016311494 -0.0012326837 -0.0005653099 -0.0009517009 0.00068833405
0.003176918 -0.0005591926 0.0015063183 0.0021449495 -0.0005872694 -0.00027008934 -0.0008385743 0.0007624051
-0.00081923447 -0.00012529816 -0.000170594 -0.0007785109 -0.00043242323 -0.0001822469 -0.0004989821 -0.0005023953
-0.00028894522 -0.0006847037 -0.00047391493 -1.564916e-05 -0.00026195924 0.00018634474 -4.8462232e-05 0.000220884
0.00015141685 0.00011364992 -0.034744073 0.05368623 -0.06953521 0.026477568 0.023272216 0.0117214555
-0.02336591 -0.037896983 0.076134756 0.029765144 0.023064103 0.0125351995 0.016049314 -0.030019652
0.026921906 -0.02440146 -0.4722385 0.23453021 0.1920225 -0.029263176 0.19779943 -0.09716275
-0.086702436 -0.101551734 0.011934932 0.14588717 0.09517479 -0.10647158 -0.134942 0.15600044
0.03861344 0.10130275 -0.08120867 -0.20849393 0.1357431 0.18905154 -0.098564796 -0.6252779
0.28457144 0.20539823 0.007053636 0.15232864 -0.03736417 0.041237637 -0.06304505 0.00034557335
0.045237992 0.024650458 -0.012908758 -0.040477462 0.053412788 0.035168543 -0.013254639 0.016998133
0.020378707 -0.016951863 0.020443704 0.012158865 -0.44710872 0.19598672 0.17890534 -0.042716432
0.2129615 0.010446896 -0.033087607 0.07326568 0.00081692345 0.0074064187 0.03585186 0.062192705
0.0703039 -0.036488757 0.034714077 0.0467087 0.02514445 0.012941269 0.068546474 -0.007419866
0.046012964 0.4572236 -0.18994744 -0.10997536 0.077500775 -0.17859997 -0.014970192 0.058785345
-0.008029701 -0.13101514 -0.027198408 -0.16540632 -0.14499994 -0.12896524 0.08672521 -0.058215145
-0.121924154 0.061043657 -0.045278497 -0.0348103 -0.016559284 0.09697841 0.0046728756 -0.0005445698
0.0014938447 0.0152590405 0.0018449901 -0.0057646204 -0.0029601492 -0.036986444 0.006076929 -0.04818064
-0.04259714 0.032950867 -0.033628907 -0.004793731 0.026349908 -0.015333811 -0.027928835 -0.020950967
0.0123521965 -0.030378236 -0.0586896 0.0022829752 -0.00034511922 0.000437981 0.0013474135 0.00054007315
-0.003186026 -0.0012970773 -0.0016877232 -0.0027163473 -0.0029811885 -0.003572972 -0.0023741643 -0.002003733
-0.0020461488 -0.0028877095 -0.0017130487 -0.002245265 -0.002511186 -0.001980495 -0.0027424705 -0.0026808963
3.365983e-05 -0.0014843596 -0.0016565812 -0.0036121267 -0.0010762907 0.10996075 0.02866633 0.15331016
-0.0019830996 0.022824667 0.04974365 0.05808256 0.07534123 -0.016320448 5.546056e-05 0.036545977
0.0109263295 0.028490784 0.043981977 -0.008140462 0.06638489 0.64013934 -0.3030768 -0.21374062
0.09498718 -0.27759895 0.08200058 -0.05174099 0.10176587 0.010888123 0.023934033 0.04592353
0.065884836 0.089284524 0.00076092733 -0.035159945 0.053533755 0.044786807 0.033102795 0.076994285
-0.009914434 0.05951275 0.5425092 -0.22262083 -0.17303903 0.0900471 -0.22187918 -0.1605897
0.014507691 0.017263383 0.07669693 -0.022631867 0.06068726 -0.097453594 -0.043975964 -0.17914194
-0.15838592 -0.12653278 0.070014365 -0.058658097 0.018870628 0.04977351 -0.10235595 -0.006239799
-0.002605447 -0.005152461 0.011041117 -0.014107472 -0.006601921 -0.014116141 -0.017890548 -0.0038685547

gat2.att_src f4 [1, 2, 48]
00000000: f22b 073d f53c 2cbd b11d 2cbb e778 d73c
00000010: 046d 22bb 6d3e 80bc de65 293d 0cd9 583d
00000020: 7bb1 e53c 1022 dd3c 778d 39bc b310 cebd
00000030: 094f 003d f66c 72bc 64e7 833a befc 36bb
00000040: f2ac 80bb 6f17 f2bd c1f6 66bd e042 dabd
00000050: 5d39 2dbc 108d 01bb 68b8 d73c 2397 283c
00000060: f89d d53c 5bf2 863d 561f aa3b b140 d4bd
00000070: 2fc2 533d 6fed e6bc 4946 073e 3c23 25bc
00000080: 8123 2abb 1c45 90bb ece8 83bd 1c46 44bd
00000090: ae7a c6bb b64d 8abb 4b29 4fbd a7d5 c5bc
000000a0: 8660 15bc 8b46 babc 93dc dbba 5b23 fa3c
000000b0: df2e adbd 918e 1e3b 9c30 d63c 343c 9f3d
000000c0: 6208 5abc 3e2a e8bb 541f 94ba 100d 9dbb
000000d0: 7508 e0ba 0efe 7abd 466e d63c ce4c 36bc
000000e0: 256b eabc 29e2 fcbc 64d9 d13c 8e55 9dba
000000f0: 087b 6cb8 fa88 10bd 558e b13c c481 bbba
00000100: 60cb 663d 5df6 6a3d 057f 89bc 9e3c 63bc
00000110: c00d f73c e6d2 84bc 395d bcbc 8e0d f93c
00000120: 6f06 97bc 2c3b 013d d74e a63c d53c 293d
00000130: 748e e6ba 7180 323c fa6c b83b fe13 d6bc
00000140: 7703 343d a45e a9bc 8b7f 243d 2705 9b3d
00000150: e112 06bb 9fbc 17bd cbb2 9ebc ee4c 03b9
00000160: 0cf1 debc 80e1 3d3d 5b77 33bc 773c 583d
00000170: 85da 303d c50b 1c3a 429c b439 149c 623d
0.033000894 -0.04205032 -0.0026262815 0.026302768 -0.0024784217 -0.015654767 0.041356914 0.052941367
0.02803873 0.026993781 -0.011325232 -0.10061779 0.031325374 -0.014796486 0.0010063467 -0.0027921642
-0.0039268667 -0.11820876 -0.056387667 -0.10657287 -0.0105727585 -0.0019767918 0.026333049 0.01028994
0.026076302 0.065891944 0.005191724 -0.103639014 0.05169886 -0.028189389 0.13210405 -0.010079201
-0.0025961103 -0.0044027697 -0.06440911 -0.047918424 -0.006057105 -0.0042206896 -0.05057649 -0.024149729
-0.009117251 -0.022738716 -0.001677411 0.030534437 -0.084562056 0.0024193863 0.026146226 0.07775155
-0.013307663 -0.007085114 -0.001130084 -0.004792817 -0.0017092364 -0.06127744 0.02617563 -0.01112671
-0.028615544 -0.03086956 0.025616355 -0.0012003647 -5.6381366e-05 -0.03528688 0.021674315 -0.0014305641
0.056346297 0.057363857 -0.0167842 -0.013869433 0.030157924 -0.016213845 -0.02299367 0.030401971
-0.018435685 0.03155057 0.020301266 0.04131778 -0.0017590062 0.010894881 0.0056282254 -0.02613258
0.043948617 -0.020675011 0.040160697 0.07569342 -0.002045803 -0.037045117 -0.019372365 -0.00012521792
-0.02721455 0.04635763 -0.0109537495 0.05279204 0.043177146 0.00059526815 0.00034448697 0.05532463

gat2.att_dst f4 [1, 2, 48]
00000000: 0e64 3fbc ffb8 d43b d9a7 ae3a c1a8 bebc
00000010: 5c16 9838 64ca f13a 75c1 283c c468 4ebc
00000020: 8766 bdbc b2d0 e3bb ad09 9c3a 87c6 5b3d
00000030: 62d0 45bc 80dc 93bb 4aaa 5f3b 6417 563c
00000040: 0708 653b 870b 0939 bedf 32bd 7e44 8bbd
00000050: 5618 003d 398b cbbb 7067 c4bc 4e06 b73b
00000060: a950 bd3b 1068 113d 6bca 27bc ff2e a8bd
00000070: d97e 15bb 5240 343c 2602 f2bc 658f c73a
00000080: 220b 483b 469a 26bb bd9c 8f3c 3cfb b53c
00000090: 8815 24ba 6f6c dc3a 16fc 06bc c591 183c
000000a0: 53d3 913b 8692 253c d3a7 aa3a c09e 5e3a
000000b0: 5134 60bd fd7e 013b 5c81 e0bc ecb2 f6bc
000000c0: d970 41bc 6c0f c6bb ef73 00bb b47c 763a
000000d0: b294 eeba 9a51 8ebc 6e55 b03c 4f78 3bbb
000000e0: 2dbe ecbc e219 fa3a 523c 5b3c fcbe 63ba
000000f0: 1600 0e39 8628 0abd e53e 113b b6dd 8d3b
00000100: fa10 b43c 1567 1a3d ab35 12bc e942 b5bb
00000110: 0717 3b3d 6048 f2bc 3dc6 37bc a8cc 963c
00000120: 55a8 e0bb 4466 723c 8940 4c3c 0692 153d
00000130: 9674 34ba 1b84 94bb d702 8a3c 2037 b8bc
00000140: 9da4 d53c 1b63 d8bb 7434 723c f2f0 1c3d
00000150: c363 41bc f6a3 f0bc 83ef 7abc 9a2a a5b9
00000160: d143 6fbc 0e65 ce3c 5016 2539 fbfd ea3c
00000170: a8fa d63c 3e62 56b9 3517 31b9 8442 b83c
-0.01168157 0.00649178 0.0013325169 -0.023273828 7.2520896e-05 0.0018447158 0.01030003 -0.01259822
-0.023120178 -0.0069523687 0.0011904739 0.053656127 -0.012073608 -0.0045123696 0.00341286 0.0130671
0.0034947412 0.00013069632 -0.04367041 -0.06800173 0.03127321 -0.006211665 -0.023975104 0.0055854684
0.0057774377 0.035499632 -0.010241131 -0.08212089 -0.0022811203 0.011001663 -0.02954204 0.001522523
0.0030524214 -0.0025421544 0.017530793 0.022214524 -0.0006259312 0.0016816984 -0.008238813 0.009312098
0.0044502406 0.010105735 0.0013019986 0.00084922835 -0.054737393 0.0019759529 -0.027405433 -0.030114613
-0.01180669 -0.006044319 -0.0019600352 0.00094027375 -0.0018202274 -0.017372895 0.021525111 -0.0028605645
-0.028899277 0.00190812 0.013381081 -0.00086878217 0.00013542207 -0.033730052 0.0022162732 0.0043294085
0.021980751 0.037695963 -0.008923928 -0.005531658 0.045676257 -0.029575527 -0.011216697 0.018408135
-0.0068560042 0.01479489 0.012466558 0.036516212 -0.0006883828 -0.0045323498 0.016847057 -0.022487223
0.02607947 -0.006603611 0.014783014 0.03831572 -0.01180357 -0.029375058 -0.015315893 -0.00031502993
-0.014603571 0.025194671 0.00015743938 0.02868556 0.02624257 -0.00020445228 -0.0001688868 0.022492655

gat2.bias f4 [96]
00000000: ad51 f73d 8e1c a23c 34b8 9b39 1306 563e
00000010: b5cb cb39 48dc 9dbb f9d7 babd 751a 093e
00000020: 2458 fa3d 50ba b5bd 41bf 54ba 4c42 bebd
00000030: 1a31 f03d 36e2 f3bc 6972 af3c 7c96 22b9
00000040: 38fa c8bc 2334 e23d 86c2 d73d 1900 e83d
00000050: 7966 51ba edb2 c7bc 2efd e63d cbbb 24be
00000060: 6d2d 3a3e 78dd 73bd 28e4 233e a89e f53d
00000070: ac40 ad3d 8c83 b9bc fe89 e23d 3783 aabd
00000080: 9d47 30bd 0d06 bc3d f991 5bbd dceb 65bd
00000090: 9a72 6abc a104 233a 301a bc3c 890b 1f3c
000000a0: c240 0bbd bf05 f1ba b01f a93b 6405 9bbd
000000b0: 5fb0 db3d ce42 ba3b d284 103e bc20 2d3e
000000c0: 452e 59bd ac0e 0f3c c67f 8cba 6fb4 5fbd
000000d0: a67f 0e3a 327d 91bd ef04 f23d 7fda 29bd
000000e0: 2444 5abd 0949 86bd 737f f13d 559c 76bb
000000f0: e87a 023a 7e8f 50bd 364f ed3d ab67 48bb
00000100: 7dd5 e43d dcc2 083e 78bf 1cbd 0624 08bd
00000110: 9045 ef3d c489 62bd 71d3 e4bd 52b0 e93d
00000120: b450 15bd d9a0 583e 691b 3b3e e76e 013e
00000130: 9ce4 8ab9 734c 82bd 426e c6bd 19f9 b7bc
00000140: 63a3 fa3d fde6 40bd b9cc ee3d 8617 ef3d
00000150: d3e5 21bc 6bdf f3bc 56bb 59bd aa25 b7ba
00000160: 718d 5cbd 3aa8 6b3e bf70 97bc 297a 5d3e
00000170: c4dc 5f3e d6c4 fbba ec51 19b9 b69a f33d
0.12076125 0.019789007 0.00029701146 0.20900755 0.0003887095 -0.0048175193 -0.09123225 0.13388999
0.12223843 -0.08873427 -0.0008115657 -0.09289989 0.117281154 -0.029770952 0.02141686 -0.00015505584
-0.024533376 0.110451005 0.10535149 0.113281436 -0.0007987987 -0.02437731 0.11278759 -0.16087262
0.18181391 -0.05953738 0.16005003 0.11993152 0.08459601 -0.022645734 0.11061476 -0.083258085
-0.043037046 0.091808416 -0.053606007 -0.056133136 -0.01430955 0.00062186463 0.022961706 0.00970734
-0.033997305 -0.0018388553 0.005161248 -0.075693876 0.107269995 0.0056842333 0.14113167 0.16907018
-0.05302264 0.008731525 -0.0010719232 -0.054615434 0.0005435891 -0.07103957 0.11817347 -0.04146814
-0.05328764 -0.06556899 0.11791887 -0.0037629802 0.0004977421 -0.050918095 0.11587374 -0.003057937
0.11173532 0.13355583 -0.038268536 -0.03323748 0.1168319 -0.055307165 -0.11173142 0.114105836
-0.036453918 0.21155109 0.18272175 0.12639962 -0.00026491738 -0.06362238 -0.09688999 -0.022457646
0.12238195 -0.047095288 0.116601415 0.116744086 -0.0098814545 -0.02976962 -0.053157173 -0.0013973017
-0.053845827 0.23013392 -0.018486379 0.21628632 0.21861559 -0.0019208442 -0.00014621735 0.11894743

gat2.lin.weight f4 [96, 96]
00000000: 8292 e8ba 814d 4db8 2b91 b83d d944 41bb
00000010: 7289 a73d 2848 fbbc e999 a63a 9731 f63b
00000020: 6641 0f39 ed2c b8bd a5a6 a2bd a360 cf3d
00000030: f3d7 f9b9 a2b1 cb3c b922 b33d 74fe bebd
00000040: 6e31 40bd 3087 6b38 582f 3e3d d07d 5437
00000050: 5a39 fab6 2bfa 363e d154 86bd 391f 0c3a
00000060: a800 173e 4fef e8bd 5389 763d 17ea 893c
00000070: 13d5 c03b 402e 42bd d5df eeb8 9a85 40b8
00000080: 660a 5e37 ee1c 053d 5cff 023e 05f7 96bd
00000090: 5c48 e2bd 1b09 733d 8c39 033d 3cff 983a
000000a0: a049 373e ce20 b93c 2f6f d33a a973 73b8
000000b0: 3bab 1fbd 0a1f c0bc cf4f 4a3e 4742 34bd
000000c0: 66a3 c83d dc85 f8b7 622c ba39 ef5e d1bc
000000d0: bab3 bb3b cacf e53d d406 8739 93bd 7e3a
000000e0: ecd6 9ebb a6f8 6bbd d1a1 03b9 226b d53d
000000f0: 2e40 a13c 2dc2 233e c12f 1a38 673d 6e38
00000100: e923 ea3d 0cdb b5b7 41bb cb3d cb2c b13d
00000110: 1956 2a3c b732 1939 6e28 a9bc b0a8 503d
00000120: f0cc 2f3d 37c3 5abd eb6f ce3d fdf1 c53b
00000130: ac0a 673d c92d 0d3e 4073 72b7 8abe 0dbe
00000140: 9602 be3d cdbf 16bd e84b 60bb f7ef e73d
00000150: 3df3 bc3d 99cf b93d faf3 67b7 1a92 653d
00000160: 4f72 eaba d3a8 143e db9f 463e b8d7 b1bc
00000170: 3a24 c739 f7f1 963c 135c 9f3a 61e0 863d
00000180: ea10 0536 afc3 6437 5e59 4cbb e074 a1b8
00000190: be65 7dbb fc05 14bb e478 f0b6 f47e b5b8
000001a0: 1dee b6b8 9c5d 76bb cb23 2fbb 4464 073b
000001b0: 19ee 2fb8 2f97 2eb8 8a47 6439 5f3d a1bb
000001c0: 11a5 00bd 2e6b 9d37 4230 f13b c4e0 6db8
000001d0: 08d1 8437 bb4e 49bd 36d7 22b9 91a7 92b7
000001e0: 4bb9 8bbc 5451 163a 2928 3d3a e20d 60b6
000001f0: 16af 92b8 4da1 593b f476 66b8 987f bcb6
00000200: d8af 12b7 eb68 7939 c050 32ba e0b3 dabc
00000210: 240d c8bb 24f1 37b8 3261 79b7 d6a8 f137
00000220: 18f2 01bc 29d7 0837 634f e438 a100 af37
00000230: 5df1 6fbb 8f58 ebb8 db9b 26ba a91d 1b38
00000240: daa0 91b8 0b41 beb7 e837 0db8 07ea 6039
00000250: 72e1 c436 5266 9bba 2507 0eb8 8528 7c39
00000260: ab32 d6b8 5904 413b 5ce9 0db8 5097 17b7
00000270: 7a9b f337 efdc 9b37 b811 0837 28b2 70b8
00000280: fed0 c0ba f699 39b8 fea3 45bb 1cb1 a4bc
00000290: 9ccc e0b7 a444 5938 3a74 5438 7007 7535
000002a0: 877e 7c3a 2c1c 293b 1ab9 c8bc b767 6ebb
000002b0: fbf9 4fbd 5970 c2b9 a23b 43b6 d11a 9cba
000002c0: 4db9 493a df19 6f3c 75aa 30bd 9ac7 cbb9
000002d0: f4e2 81b6 b005 26bb 6a27 0637 d421 8cbc
000002e0: 6c76 1538 2a9d 33bb 3112 86ba 4e15 3736
000002f0: 69b6 97b7 dce3 2f38 3337 be38 3c1f f2ba
00000300: 6357 f637 f40f 9937 e592 94ba 3e16 68b9
00000310: 50fa b13a 9940 f5ba f738 2db8 5ce9 ddb5
00000320: 50c7 bbb7 1497 3fbb c3b3 3ebb 4d7b f638
00000330: ee01 66b7 d003 24b8 a2f1 1538 3ae1 34bb
00000340: 3bf9 2cbb a883 6e37 57c0 32bb e94c 0938
00000350: 90fa 42b6 672d a1bb cd07 f9b7 5642 3db7
00000360: 9199 f2ba 4e29 f839 214d c637 b280 edb6
00000370: 43bc fcb7 36dd 27ba b0a4 c537 d61a 1837
00000380: 1362 ea37 2446 ec38 2a36 6d3b a71a 44ba
00000390: 979c 3b3b d212 e937 a249 96b7 7c10 1e38
000003a0: 6071 9aba c9cc 1ab8 80c3 4bb6 24f1 7cb8
000003b0: 4df7 38ba cc0a 0238 e97d 69ba 0cf2 beb6
000003c0: 1825 a538 dd4e 87b7 82a1 3a39 4d8e 8738
000003d0: bcb8 50b7 fcb7 14bb 66d3 ffb6 0c9a c2b8
000003e0: 6740 0237 adfb 8c39 46bf 9eb7 a376 f037
000003f0: a897 8436 b607 a337 82c4 6d38 0a6d f4b7
-0.0017743858 -4.894799e-05 0.090120636 -0.00294905 0.081805125 -0.030674055 0.0012710664 0.007513236
0.00013661906 -0.08992944 -0.07941941 0.10125854 -0.00047653876 0.024864975 0.08746857 -0.09325877
-0.04692214 5.615427e-05 0.04643187 1.2665478e-05 -7.457257e-06 0.17868869 -0.06559146 0.0005345229
0.14746344 -0.113737695 0.060189556 0.016835256 0.0058847754 -0.04740739 -0.00011390416 -4.5900793e-05
1.3234652e-05 0.032498293 0.12792724 -0.07371334 -0.11048958 0.059334856 0.032037303 0.0011672745
0.1789918 0.02259865 0.0016131158 -5.804343e-05 -0.038981657 -0.0234523 0.19757007 -0.04400852
0.09796791 -2.9626237e-05 0.00035509752 -0.025557963 0.005728212 0.11221273 0.00025754294 0.000971758
-0.004847398 -0.057610177 -0.00012553415 0.104208246 0.019683924 0.15992041 3.6760935e-05 5.6800807e-05
0.114326306 -2.1678883e-05 0.09947825 0.08651122 0.010396504 0.0001461011 -0.020649161 0.050942123
0.042920053 -0.053408828 0.100799404 0.00604081 0.056406662 0.13786997 -1.4451158e-05 -0.13842216
0.09277837 -0.03680401 -0.003422493 0.113250665 0.092260815 0.09072799 -1.3825478e-05 0.056047536
-0.001788685 0.14517526 0.19396918 -0.021709308 0.0003798323 0.018425925 0.0012158178 0.06585766
1.982839e-06 1.363542e-05 -0.0031181197 -7.698848e-05 -0.003866538 -0.0022586575 -7.166631e-06 -8.6543994e-05
-8.722788e-05 -0.0037592417 -0.0026724215 0.0020659128 -4.1944997e-05 -4.1625633e-05 0.00021770425 -0.004920646
-0.03140742 1.8765768e-05 0.007360489 -5.6714533e-05 1.5832964e-05 -0.04914735 -0.00015529696 -1.7482585e-05
-0.017056128 0.0005734165 0.0007215762 -3.3386682e-06 -6.994435e-05 0.0033207715 -5.4947057e-05 -5.6176905e-06
-8.74322e-06 0.00023785575 -0.0006802194 -0.0266971 -0.006105082 -4.385518e-05 -1.4864187e-05 2.880806e-05
-0.007931255 8.156328e-06 0.00010886674 2.0861919e-05 -0.003661237 -0.000112221685 -0.0006355622 3.6982503e-05
-6.9441e-05 -2.2680053e-05 -3.3669086e-05 0.00021449487 5.8675005e-06 -0.0011856055 -3.3862092e-05 0.00024047687
-0.00010213753 0.0029452054 -3.3834353e-05 -9.035532e-06 2.9040257e-05 1.858032e-05 8.110357e-06 -5.738638e-05
-0.0014710722 -4.4250824e-05 -0.0030157561 -0.020103984 -2.679816e-05 5.180076e-05 5.0652983e-05 9.1280435e-07
0.0009631891 0.0025804145 -0.024502326 -0.0036377737 -0.05077551 -0.0003708627 -2.9091975e-06 -0.0011909847
0.00076951535 0.0145935705 -0.04313131 -0.00038867892 -3.8709204e-06 -0.002533298 7.996199e-06 -0.017105974
3.5634657e-05 -0.002740691 -0.001022881 2.7281526e-06 -1.8085544e-05 4.1935462e-05 9.070188e-05 -0.0018472443
2.9366178e-05 1.824645e-05 -0.0011335282 -0.0002213353 0.0013578627 -0.0018711268 -4.1299467e-05 -1.65337e-06
-2.238495e-05 -0.0029234337 -0.0029098846 0.00011753161 -1.3709518e-05 -3.9104198e-05 3.5749406e-05 -0.0027600066
-0.002639367 1.4216559e-05 -0.0027275288 3.2734974e-05 -2.90541e-06 -0.0049187425 -2.9686746e-05 -1.1280723e-05
-0.0018508901 0.0004733302 2.3639355e-05 -7.0781325e-06 -3.0128407e-05 -0.00064035074 2.3560919e-05 9.066154e-06
2.7940643e-05 0.00011266422 0.0036195614 -0.0007480778 0.002862727 2.7784528e-05 -1.7915681e-05 3.7685488e-05
-0.0011783056 -3.6907182e-05 -3.0363153e-06 -6.030606e-05 -0.00070558937 3.100447e-05 -0.00089070067 -5.690619e-06
7.874722e-05 -1.6129978e-05 0.00017798509 6.463807e-05 -1.2440778e-05 -0.002269267 -7.624202e-06 -9.279334e-05
7.763599e-06 0.00026890394 -1.8924136e-05 2.8665474e-05 3.9515617e-06 1.9434705e-05 5.6688215e-05 -2.9137842e-05

gat4.lin.weight f4 [1, 96]
00000000: 74d8 4dbe 7d2d 41bb cfe3 213b c470 a0be
00000010: 5821 28b9 6d8d 62b8 8e98 d93e 3b9e 6bbe
00000020: c41f 9dbe e6f4 583e 9baa f4bc 38b5 c63e
00000030: 5246 58be ad11 b2bc 777a 513d bc00 cbbc
00000040: 1683 803e 9a81 0fbe 36c9 dbbd e4ca 22be
00000050: 876d f43a 9980 b33c c0be 33be 45cc aa3e
00000060: a921 5abe b685 173f e825 3bbe 8780 16be
00000070: b2b2 8dbd 65a1 12bc 838c 85be 9e64 153e
00000080: a4fe 61bc c4d6 aebd d71f a23d 1f11 343e
00000090: 3170 153d ab17 4b3a 7097 153d f061 d4bc
000000a0: 7af1 e03b 771b 843b b3c3 823b 1da5 363e
000000b0: adce 89be cd6e 32bd e2fe 82be 6239 39be
000000c0: 1f0c 343d 3adb 493c b892 00bb af3b 8f3d
000000d0: 8d7d 06bb f8e6 9d3e 3508 ccbd 6e1b bbbc
000000e0: 6388 953d 08d0 513e 72c9 e6bd aca5 4dbd
000000f0: 909f 96ba 425d 3b3d 7eb7 d2bd a396 53bd
00000100: b7e6 59be 5b64 bfbe 22ed c33c bf43 ffbc
00000110: 5e80 6abe 2b4b 053e 9965 d83e 3ccb 14be
00000120: de80 463c d841 78be 7a16 2bbe 0e36 97be
00000130: 38a6 b7ba 2aaf 163e d56a 7a3e 1745 a4bd
00000140: 51eb 68be 7de0 4abb 4560 b0bd 96af 9fbe
00000150: 3d55 b53c a9c8 d7bd 0140 2b3d dd96 2639
00000160: 9f7f 833c 8bff 66be d2b1 28bd c9c9 78be
00000170: cd90 82be 12fd cab9 ddc8 4739 9bc7 15be
-0.20102102 -0.0029476576 0.0024702435 -0.31336033 -0.0001603415 -5.4014312e-05 0.42499202 -0.23009579
-0.30688298 0.21187171 -0.029866507 0.38810134 -0.21120575 -0.021736944 0.051142182 -0.024780624
0.2510001 -0.14014283 -0.10731737 -0.15897709 0.0018648364 0.021911906 -0.17553234 0.3335897
-0.21301903 0.591884 -0.18276179 -0.14697467 -0.06918849 -0.008949612 -0.26083764 0.14589164
-0.013793621 -0.08537057 0.07916229 0.17584656 0.036483947 0.0007747362 0.036521375 -0.025925606
0.0068647237 0.0040315944 0.0039906143 0.17836423 -0.26915494 -0.0435627 -0.25585085 -0.18088296
0.043956872 0.012320334 -0.0019618701 0.069938056 -0.0020521611 0.30840278 -0.09962503 -0.022840228
0.07301404 0.20489514 -0.112688914 -0.050206825 -0.0011491645 0.045743234 -0.102889046 -0.05165733
-0.21279417 -0.37381253 0.023916785 -0.031160234 -0.2290053 0.13016956 0.42265013 -0.14530653
0.012115685 -0.24243867 -0.16707793 -0.29533428 -0.0014011329 0.14715257 0.24454816 -0.0802099
-0.22746016 -0.003095656 -0.08612112 -0.3118865 0.022135371 -0.1053632 0.041809086 0.00015887195
0.016052065 -0.2255842 -0.041185208 -0.24295725 -0.255011 -0.00038716994 0.00019052946 -0.14626925
