graph_result/GCN_best_model_c.pth (torch, 6229 bytes, 3 tensors)

conv1.bias f4 [48]
0.013833384 0.10006516 -0.06619581 0.0068281046 -0.014755433 0.00016749928 0.1067657 -0.0753977
-0.0042052744 -0.05068291 -0.045911167 0.030040836 0.13360259 0.024071312 -0.0057915477 -0.04180716
-7.615723e-05 0.0063400287 -0.0112280855 0.051394105 -0.06877037 0.008975587 0.044024818 -0.026581284
0.054774888 0.02185819 -0.0011792933 -0.059995234 -0.027883016 -0.05971746 -0.02893629 -0.02825594
0.01842428 0.016802354 0.0012122138 -0.027911069 -0.0659537 -0.020276757 0.002187158 0.015314852
0.09610426 0.002837658 0.06781185 0.021516299 -0.0009294877 0.11668305 0.11555698 0.016293637
00000000: 6ba5 623c f6ee cc3d ab91 87bd 4bbe df3b
00000010: c6c0 71bc bfa2 2f39 faa7 da3d 1c6a 9abd
00000020: 66cc 89bb e298 4fbd 590d 3cbd 3318 f63c
00000030: 1ecf 083e 3331 c53c 06c7 bdbb fc3d 2bbd
00000040: 9ab6 9fb8 04c0 cf3b 01f6 37bc a082 523d
00000050: 7bd7 8cbd 570e 133c 5e53 343d fec0 d9bc
00000060: a25b 603d f20f b33c 8492 9aba 90bd 75bd
00000070: ec6a e4bc 4c9a 74bd cc0b edbc 0079 e7bc
00000080: 84ee 963c 17a5 893c 25e3 9e3a c1a5 e4bc
00000090: bc12 87bd 711b a6bc 6c56 0f3b 25eb 7a3c
000000a0: 4fd2 c43d 00f8 393b f0e0 8a3d f342 b03c
000000b0: dda8 73ba 86f7 ee3d 23a9 ec3d 3c7a 853c

conv1.lin.weight f4 [48, 21]
-0.030675123 -0.06347153 -0.19587113 0.0017310858 -0.13654211 -0.023217743 0.019349031 0.040121365
0.19712102 0.21776627 0.11251075 -0.054709032 0.04325315 -0.18837829 0.023616854 0.034478623
-0.39611247 0.16744886 0.20958188 -0.030906597 0.31139696 -0.06659343 -0.030061873 -0.19385745
0.1479132 0.060248967 -0.06572567 -0.07948713 -0.101247855 0.15597285 0.0064454274 0.08451563
0.045521207 -0.09535228 0.046991825 0.17269902 -0.02851722 -1.0584371 0.5502115 0.589263
-0.22774512 0.72471124 0.12849034 0.081520796 -0.012422878 -0.07608844 0.009351261 -0.0005328448
0.013943526 -0.051008213 0.13207321 -0.24851951 -0.02185906 -0.19296551 0.047503084 0.123997636
-0.24081314 -0.0732497 0.0010943199 0.0829255 -0.2658452 -0.2551252 0.051008057 0.007403404
0.078919545 0.16040987 0.08526728 -0.0362107 -0.21801461 0.04242788 -0.21358627 0.08387514
0.16710259 0.116842814 0.026201332 -0.1388776 0.21129994 -0.19905221 0.18453902 -0.031348396
0.02342994 0.03844435 0.026256694 0.040763877 0.09267641 -0.24747798 0.041030772 -0.107476614
0.14226064 0.17662226 -0.21743017 -0.13631985 -0.213836 0.042672776 0.17405427 -0.1511491
-0.08312457 -0.08382445 0.16569845 -0.05532552 -0.006028521 0.008099865 0.01646163 -0.13106324
0.051961653 -0.0014643056 0.0010773147 0.00036230177 0.0004649254 0.00027580422 0.000486532 0.0001467586
-0.00049579365 -0.00040543196 0.00024365814 -0.00015586216 -5.9316422e-05 -0.00017408108 0.00021278062 0.00020789704
0.00085167727 -0.0011746844 -0.0003256554 -0.00025437906 0.00022747138 -0.00020252762 -0.086779386 -0.029678479
-0.23297884 0.15827595 0.073594406 -0.09056867 -0.079662986 -0.0844512 0.15473361 0.008647935
0.0963034 0.058522176 -0.09484078 0.049661346 0.18203667 -0.032829806 -1.0609694 0.57727623
0.61275494 -0.23943837 0.7212112 -0.07062471 -0.015215697 0.060560364 -0.096374236 0.19885355
0.10056059 0.09846398 -0.09228164 -0.09292464 -0.21506372 -0.120953895 0.20004529 -0.22374696
-0.35091788 0.07894168 -0.27828246 -5.1708565e-05 0.05507581 0.15249778 -0.23606636 -0.023765557
-0.12717223 0.0432618 0.1471631 0.2619209 -0.03188187 -0.114841685 -0.17419574 0.17152646
0.07488187 -0.16518822 0.10115268 -0.2537283 0.22521032 0.15280287 0.24362138 0.1673569
0.5612065 -0.1542396 -0.17574334 0.12994877 -0.2997905 -0.11952021 0.08906898 -0.079887055
-0.09435373 0.113930695 -0.101841465 -0.11074838 -0.088129945 -0.06469259 -0.12969553 0.08271437
0.05737798 -0.07070987 -0.057298116 -0.02776035 0.057090126 -2.8960603e-06 -0.0136969825 -0.07863414
-0.16307534 -0.043482613 -0.06046921 0.13333404 -0.105038576 -0.13104887 -0.13530399 -0.14252426
0.14269567 -0.17194736 -0.18011215 0.0500074 -0.27147773 -0.07206202 0.13665728 0.071263835
-0.026995078 0.004924262 -0.019413918 -0.008149617 -0.04432521 -0.06535403 0.012951516 0.04115465
0.049519133 0.0047078216 0.102448 0.039646048 0.041651372 -0.024837783 -0.15737987 -0.06474681
0.054943874 -0.024026198 0.026551202 -0.06098501 0.050910275 0.10837623 0.093899645 -1.012569
0.4604327 0.33617377 -0.10565432 0.43867218 0.23508245 0.3165505 0.47007662 0.12499548
00000000: 654a fbbc 5dfd 81bd 7192 48be 9ae5 e23a
00000010: b2d1 0bbe 2333 bebc dc81 9e3c 4d56 243d
00000020: 18da 493e 1ffe 5e3e 096c e63d 9416 60bd
00000030: 372a 313d 3de6 40be 2278 c13c 7539 0d3d
00000040: 41cf cabe b777 2b3e a29c 563e d52f fdbc
00000050: 6c6f 9f3e 2362 88bd 5144 f6bc 9182 46be
00000060: 8f76 173e 9fc7 763d 2e9b 86bd 26ca a2bd
00000070: 095b cfbd 59b7 1f3e 2a34 d33b 8816 ad3d
00000080: 7274 3a3d 0e48 c3bd 807a 403d 03d8 303e
00000090: f29c e9bc de7a 87bf a9da 0c3f f1d9 163f
000000a0: 0436 69be ad86 393f f992 033e 60f4 a63d
000000b0: 5489 4bbc 42d4 9bbd 0836 193c 9cae 0bba
000000c0: 6373 643c fded 50bd 333e 073e e67b 7ebe
000000d0: c511 b3bc c098 45be 9892 423d 79f2 fd3d
000000e0: b897 76be f003 96bd 486f 8f3a d8d4 a93d
000000f0: dd1c 88be c59f 82be d3ed 503d 4198 f23b
00000100: 92a0 a13d 7c42 243e 9da0 ae3d ac51 14bd
00000110: 393f 5fbe dbc8 2d3d 5cb6 5abe bbc6 ab3d
00000120: f11c 2b3e 494b ef3d 2da4 d63c ee35 0ebe
00000130: 035f 583e 58d4 4bbe ccf7 3c3e 2d67 00bd
00000140: 25f0 bf3c d377 1d3d 4718 d73c 06f8 263d
00000150: 21cd bd3d de6a 7dbe e20f 283d b31c dcbd
00000160: c6ac 113e 77dc 343e 04a6 5ebe 6e97 0bbe
00000170: d3f7 5abe a6c9 2e3d 483b 323e d4c6 1abe
00000180: 373d aabd 27ac abbd dbac 293e 039d 62bd
00000190: e68a c5bb 4cb5 043c 8ada 863c 7135 06be
000001a0: bed5 543d f1ed bfba af34 8d3a 52f3 bd39
000001b0: 3bc1 f339 d199 9039 3815 ff39 36e3 1939
000001c0: 26f8 01ba 2890 d4b9 7c7e 7f39 ee6e 23b9
000001d0: 86ca 78b8 8989 36b9 dd1d 5f39 f0fe 5939
000001e0: 1843 5f3a def7 99ba babc aab9 2e5e 85b9
000001f0: 6285 6e39 985d 54b9 64b9 b1bd 4820 f3bc
00000200: 0192 6ebe 1713 223e aab8 963d 117c b9bd
00000210: 5926 a3bd c0f4 acbd 7d72 1e3e 12b0 0d3c
00000220: b83a c53d f3b4 6f3d e23b c2bd b269 4b3d
00000230: d267 3a3e 8c78 06bd d8cd 87bf 60c8 133f
00000240: 82dd 1c3f 552f 75be 4ca1 383f b0a3 90bd
00000250: 424b 79bc 250e 783d db5f c5bd 44a0 4b3e
00000260: b6f2 cd3d 7ca7 c93d 28fe bcbd 464f bebd
00000270: aa39 5cbe adb6 f7bd acd8 4c3e ec1d 65be
00000280: 82ab b3be 2dac a13d 0a7b 8ebe a6e1 58b8
00000290: 2c97 613d 6128 1c3e 61bb 71be fcaf c2bc
000002a0: 7039 02be 4933 313d ecb1 163e 7f1a 863e
000002b0: 9096 02bd 1e32 ebbd 5e60 32be a2a4 2f3e
000002c0: aa5b 993d 1a27 29be 2329 cf3d ade8 81be
000002d0: 899d 663e 5b78 1c3e e277 793e 9b5f 2b3e
000002e0: 3bab 0f3f fcf0 1dbe 10f6 33be 4a11 053e
000002f0: 247e 99be 03c7 f4bd cc69 b63d d39b a3bd
00000300: 873c c1bd 7f54 e93d 4292 d0bd 0cd0 e2bd
00000310: 797d b4bd 8c7d 84bd e8ce 04be 2766 a93d
00000320: 2c05 6b3d 56d0 90bd 6eb1 6abd ac69 e3bc
00000330: 56d7 693d f059 42b6 4f69 60bc f00a a1bd
00000340: 39fd 26be d31a 32bd 90ae 77bd b888 083e
00000350: 771e d7bd ad31 06be 218d 0abe e1f1 11be
00000360: d01e 123e f812 30be 526f 38be 8fd4 4c3d
00000370: 21ff 8abe 4195 93bd e3ef 0b3e c6f2 913d
00000380: c824 ddbc b45b a13b f009 9fbc f985 05bc
00000390: 5a8e 35bd 55d8 85bd 9832 543c c791 283d
000003a0: 93d4 4a3d 1244 9a3b 42d0 d13d e563 223d
000003b0: a19a 2a3d 9b78 cbbc 3028 21be fa99 84bd
000003c0: d40c 613d 97d2 c4bc e881 d93c 6bcb 79bd
000003d0: 4b87 503d 5bf4 dd3d 754e c03d dc9b 81bf
000003e0: d6bd eb3e f81e ac3e 4b61 d8bd a499 e03e
000003f0: 74b9 703e e812 a23e e2ad f03e a1fd ff3d

conv2.lin.weight f4 [1, 48]
-0.24801435 -1.0197029 0.16235946 -0.016564768 -0.0774995 0.00022394085 -1.0749059 0.22565918
0.22961934 0.013040339 -0.029143246 -0.92856735 0.7216215 -0.24346535 -0.029703455 0.01788271
-0.00015435362 -0.29373282 0.003773852 -0.569442 0.21140102 -0.12874949 -0.4370653 -0.14859071
0.16560735 -0.17666636 -0.0615061 0.0069775293 -0.056750707 0.07358864 0.19526385 -0.11512293
-0.24344997 -0.12653536 -0.06995591 -0.01794886 0.08280097 -0.1688258 -0.124927945 -0.14064744
-0.9825953 -0.06798434 -1.0437839 -0.25990695 6.892955e-05 -0.98331916 -1.13126 -0.37043047
00000000: 79f7 7dbe a085 82bf 8f41 263e d6b2 87bc
00000010: 0fb8 9ebd aad1 6a39 8496 89bf 3313 673e
00000020: 5521 6b3e 25a7 553c d1bd eebc 97b6 6dbf
00000030: 30bc 383f fb4e 79be a954 f3bc c37e 923c
00000040: fcd9 21b9 2664 96be bb52 773b f3c6 11bf
00000050: 8279 583e e8d6 03be 06c7 dfbe 2a28 18be
00000060: f994 293e 07e8 34be d2ed 7bbd c2a3 e43b
00000070: 6e73 68bd a4b5 963d 3ff3 473e 92c5 ebbd
00000080: f34a 79be 7c92 01be 0b45 8fbd 7d09 93bc
00000090: 8e93 a93d ace0 2cbe 39da ffbd e205 10be
000000a0: 5e8b 7bbf 603b 8bbd b69a 85bf 8612 85be
000000b0: 458e 9038 ceba 7bbf 21cd 90bf 10a9 bdbe
