graph_result/GCN_best_model.pth (torch, 6217 bytes, 3 tensors)

conv1.bias f4 [48]
0.033615362 -0.0443993 0.028451977 0.019759359 -0.0001901342 -0.0035241835 -0.04118724 -0.0768095
0.087583974 -0.053951707 -0.038019463 -0.13264292 -0.05680966 0.017173639 0.0059430343 -0.0070126536
-0.063903034 0.032135766 0.03145039 -0.00624576 -0.03028741 -0.05954907 -0.025971098 0.032005314
0.03004047 -0.002970735 0.12102329 -0.034883734 0.008627437 -0.060268976 0.0023252093 -0.02992955
0.018736556 -0.021568738 -0.01361323 -0.017879024 0.03274248 0.16306552 -0.013167849 0.031449866
-0.039305672 0.024766412 -0.019482384 -0.06390753 0.022990253 -0.0040374254 -0.06418774 -0.06620591
00000000: 43b0 093d 0adc 35bd 1f14 e93c 61de a13c
00000010: c35e 47b9 fdf5 66bb f4b3 28bd 4d4e 9dbd
00000020: 3a5f b33d 77fc 5cbd 4cba 1bbd 8cd3 07be
00000030: 3fb1 68bd bbaf 8c3c c9bd c23b 67ca e5bb
00000040: 98df 82bd cba0 033d 20d2 003d 3ba9 ccbb
00000050: 4d1d f8bc bae9 73bd 57c1 d4bc 0118 033d
00000060: 6f17 f63c aab0 42bb 0fdb f73d 3fe2 0ebd
00000070: 185a 0d3c 9adc 76bd 8a62 183b d12e f5bc
00000080: 687d 993c ecb0 b0bc 060a 5fbc 0877 92bc
00000090: fb1c 063d a6fa 263e f6bd 57bc 93d1 003d
000000a0: fcfe 20bd eee2 ca3c 8599 9fbc f3e1 82bd
000000b0: 0e56 bc3c 614c 84bb dd74 83bd f796 87bd

conv1.lin.weight f4 [48, 21]
-0.018329764 0.13716404 -0.3321616 -0.027906211 0.26822162 0.097191386 0.23344758 0.026511418
-0.2145251 0.1547902 -0.14010791 0.14999402 -9.48454e-05 0.0046641026 -0.093054056 0.0852814
-0.43449423 0.08084982 0.3539557 -0.024482764 0.22871734 -0.10179269 -0.09331603 -0.08798456
-0.21549152 -0.0345068 -0.17397197 0.033567477 -0.09412609 0.116643876 -0.18052205 -0.12169373
-0.100965135 0.014350455 0.12064782 0.09676136 0.13583776 3.6804795e-05 -0.0032918637 -0.033554904
0.041554753 -0.0340941 0.22047384 0.028147765 0.00016742926 -0.25423607 0.21383268 0.1894851
0.23955873 -0.06389636 0.25431928 -0.033705696 0.07013909 0.19212209 -0.22064994 0.11195601
0.090567864 0.10365366 -0.4249435 0.08028491 0.1273132 0.13722207 0.31775236 -0.2361046
-0.0976271 -0.23239373 0.083983935 0.20845191 -0.025183963 0.14621343 0.21207088 -0.20938328
0.16552706 0.12593246 0.030759063 0.24122553 0.1466486 -0.12177614 0.12876913 -0.40896136
0.15777077 0.25671905 -0.17151116 0.24975638 -0.00019323011 -0.00011857971 -0.00023931256 -0.00025532328
-0.0002510621 -0.00020097043 -0.00030062968 -0.00020223389 -0.00012635584 -0.00028203396 -0.000103857 -0.0001986031
-0.00022830509 -0.00013614945 -8.9326495e-05 -0.00011747385 7.643029e-05 1.8197226e-05 5.963719e-05 -0.00016713866
0.00011816804 -0.0018302735 0.012615609 -0.009444707 -0.010824165 0.0103865 -0.006145526 -0.0013595982
0.01504878 -0.0005032547 -0.004503706 -0.010183892 -0.012185129 0.012696423 0.007868831 0.008967178
-0.0073907822 0.0055830255 0.002340534 -0.00051179895 -0.00032099368 0.0010039271 0.21911351 0.16105202
0.19508322 0.09618867 0.1817169 0.06598836 -0.18257238 -0.11851812 0.12112809 0.056372166
-0.15845884 0.027369663 -0.3061861 0.13083604 0.116336465 0.26144752 0.93484145 -0.32364607
-0.26818892 0.24033882 -0.4599431 0.119013675 -0.052455317 0.26683143 -0.0111833755 0.0179603
0.04378632 0.13935578 0.13347603 -0.02774776 0.049232565 -0.019393109 -0.025619917 0.037791457
0.03454951 -0.11361518 0.11189971 0.7929148 -0.533429 -0.5922117 0.15154502 -0.6711118
0.006543849 -0.011910784 -0.1185999 0.06855677 0.024012463 0.023077989 -0.05861725 -0.095873766
0.021533787 -0.080657326 0.10984754 0.063013405 0.0033080487 0.031430498 0.1281697 -0.0224212
-0.9394686 0.49555707 0.52230513 -0.16495171 0.6180957 0.11287567 -0.015772974 -0.15418804
-0.016099796 -0.2796509 -0.03746023 -0.030050905 -0.063716814 0.0833813 0.17890424 -0.16553444
0.07834024 -0.05296689 -0.14479129 -0.028107028 -0.27875692 -1.3540603e-05 0.03550713 0.005413683
-0.0036834616 -0.037774827 -0.2198978 -0.039755028 -0.20370734 0.12595522 -0.26083165 0.04485598
0.1893161 0.19336079 -0.120767675 -0.100005485 0.19840635 -0.053054973 -0.22698839 -0.21730736
0.124267936 -0.22252135 -0.00882755 -0.006703768 0.025241062 -0.047003105 0.053203236 0.2751428
0.05880976 0.46979356 -0.01467349 0.010596222 0.06388428 0.196785 0.10731859 -0.11885561
-0.14738667 -0.09235475 -0.037699345 0.03368702 0.092667855 -0.15359756 0.28496087 0.94078887
-0.6772512 -0.77174133 0.16595803 -0.87381905 0.02616154 0.12898144 -0.08918405 0.1753403
00000000: 4d28 96bc bb74 0c3e 1611 aabe 919b e4bc
00000010: 5854 893e 470c c73d e20c 6f3e 792e d93c
00000020: 78ac 5bbe 5281 1e3e 7378 0fbe 0898 193e
00000030: bde7 c6b8 54d5 983b 2093 bebd 04a8 ae3d
00000040: 0776 debe 9794 a53d ae39 b53e 1490 c8bc
00000050: e134 6a3e b078 d0bd 7a1c bfbd 4031 b4bd
00000060: cfa9 5cbe 0157 0dbd b525 32be 0d7e 093d
00000070: 2ec5 c0bd fce2 ee3d c6da 38be 903a f9bd
00000080: cfc6 cebd 2c1e 6b3c 3416 f73d d22a c63d
00000090: 0e19 0b3e d95e 1a38 4fbc 57bb de70 09bd
000000a0: 5135 2a3d 41a6 0bbd e5c3 613e 2496 e63c
000000b0: f38f 2f39 3b2b 82be f4f6 5a3e 6208 423e
000000c0: e24e 753e 18dc 82bd 2336 823e fc0e 0abd
000000d0: 15a5 8f3d a7bb 443e 0ff2 61be 3149 e53d
000000e0: a57b b93d 5f48 d43d 3292 d9be 6a6c a43d
000000f0: 645e 023e f183 0c3e 70b0 a23e 67c5 71be
00000100: b8f0 c7bd 9ff8 6dbe c5ff ab3d 6b74 553e
00000110: 994e cebc f9b8 153e 1c29 593e 9268 56be
00000120: ed7f 293e 70f4 003e 6efa fb3c d303 773e
00000130: 0d2b 163e c565 f9bd 0edc 033e 6263 d1be
00000140: a98e 213e ae70 833e 9fa0 2fbe 23c0 7f3e
00000150: d09d 4ab9 ffad f8b8 faef 7ab9 e9dc 85b9
00000160: fca0 83b9 97bb 52b9 d59d 9db9 bf0e 54b9
00000170: 637e 04b9 f5dd 93b9 cdcd d9b8 1d40 50b9
00000180: 2e65 6fb9 57c3 0eb9 cc54 bbb8 4b5c f6b8
00000190: 3349 a038 3fa6 9837 f222 7a38 f141 2fb9
000001a0: fcd0 f738 cae5 efba b3b1 4e3c f9bd 1abc
000001b0: d757 31bc 232c 2a3c 6960 c9bb 8c34 b2ba
000001c0: 288f 763c daec 03ba d393 93bb 57da 26bc
000001d0: 23a4 47bc a804 503c 45ec 003c 12eb 123c
000001e0: 602e f2bb d0f1 b63b a563 193b 3f2a 06ba
000001f0: 0b4b a8b9 3496 833a 4b5f 603e d2ea 243e
00000200: e5c3 473e 91fe c43d ff13 3a3e e824 873d
00000210: 41f4 3abe a1b9 f2bd 0112 f83d 80e6 663d
00000220: 0943 22be 5836 e03c 6dc4 9cbe e2f9 053e
00000230: d041 ee3d 73dc 853e c551 6f3f f0b4 a5be
00000240: 0f50 89be 611b 763e a97d ebbe 71bd f33d
00000250: 63db 56bd 219e 883e 7a3a 37bc 7b21 933c
00000260: 4959 333d 48b3 0e3e f1ad 083e 454f e3bc
00000270: 16a8 493d 4cde 9ebc dce0 d1bc 37cb 1a3d
00000280: c983 0d3d 13af e8bd ad2b e53d 77fc 4a3f
00000290: ce8e 08bf 309b 17bf 9e2e 1b3e fccd 2bbf
000002a0: c96d d63b 7325 43bc 81e4 f2bd 7e67 8c3d
000002b0: c9b5 c43c 0d0e bd3c a418 70bd 7759 c4bd
000002c0: a067 b03c ab2f a5bd bff7 e03d 2c0d 813d
000002d0: d9cb 583b 44bd 003d eb3e 033e aaac b7bc
000002e0: 0481 70bf a8b9 fd3e cab5 053f 1ae9 28be
000002f0: 853b 1e3f 5c2b e73d 5336 81bc 78e3 1dbe
00000300: b8e3 83bc 672e 8fbe e66f 19bd 512d f6bc
00000310: f67d 82bd d1c3 aa3d ac32 373e dc81 29be
00000320: d970 a03d cff3 58bd 2b44 14be b640 e6bc
00000330: 3ab9 8ebe 722c 63b7 ed6f 113d 4465 b13b
00000340: 3b66 71bb c7b9 1abd e42c 61be 2bd6 22bd
00000350: a898 50be 68fa 003e ba8b 85be e7ba 373d
00000360: 14dc 413e 5f00 463e 0b55 f7bd adcf ccbd
00000370: 092b 4b3e 2c50 59bd a56f 68be d285 5ebe
00000380: 3080 fe3d a3dc 63be 6ea1 10bc 48ab dbbb
00000390: 58c6 ce3c 5486 40bd a3eb 593d 84df 8c3e
000003a0: 81e2 703d c888 f03e 1469 70bc c79b 2d3c
000003b0: c3d5 823d 0282 493e d9c9 db3d 926a f3bd
000003c0: 88ec 16be 7d24 bdbd a16a 1abd 67fb 093d
000003d0: a5c8 bd3d ae48 1dbe 64e6 913e 8ad7 703f
000003e0: 5660 2dbf d790 45bf e7f0 293e 9bb2 5fbf
000003f0: ba50 d63c b613 043e 21a6 b6bd 688c 333e

conv2.lin.weight f4 [1, 48]
-0.3318492 0.078005195 -0.22513865 -0.17344137 -9.960949e-05 -0.021615865 0.3979083 0.82412857
-0.90433127 0.08319868 -0.05267471 0.8845621 0.17761967 -0.24880654 -0.46619466 -0.004516378
0.23957554 -0.3467203 -0.5000357 0.36979404 -0.019389497 0.89346164 -0.04191591 -0.37001148
-0.30983788 -0.15120116 -0.57659775 0.10506908 0.77068025 0.8930738 -0.021059861 -0.030010697
-0.1407724 0.25821415 0.0092010535 -0.015793975 -0.44514206 -0.9229642 0.4302044 -0.33140364
0.008370959 -0.22887814 0.019609306 0.212243 -0.18759836 0.04247907 0.19724381 0.23603632
00000000: 23e8 a9be 30c1 9f3d bf8a 66be 9d9a 31be
00000010: 70e5 d0b8 c113 b1bc a3ba cb3e 17fa 523f
00000020: 4182 67bf 1264 aa3d 70c1 57bd a972 623f
00000030: eee1 353e 24c7 7ebe 11b1 eebe 20fe 93bb
00000040: 4a53 753e 5385 b1be 5702 00bf a555 bd3e
00000050: b9d6 9ebc e7b9 643f 04b0 2bbd 2572 bdbe
00000060: 12a3 9ebe 7ad4 1abe e99b 13bf 752e d73d
00000070: 4d4b 453f 7ca0 643f bb85 acbc fed8 f5bc
00000080: a426 10be a534 843e 04c0 163c 5e62 81bc
00000090: a9e9 e3be 6247 6cbf c043 dc3e bdad a9be
000000a0: 5926 093c 085f 6abe b2a3 a03c 3b56 593e
000000b0: c919 40be 89fe 2d3d 48fa 493e 81b3 713e
